Final Project ML2/diabetes.tflite (tflite, 2548 bytes, 6 tensors)

sequential/dense_1/BiasAdd/ReadVariableOp f4 [5]
000000 68 c1 fa bc 5a 01 a0 3e d0 29 c8 be 3a 8b 89 bc
       -0.030609801 0.3125103 -0.390944 -0.016790021
000010 61 70 bc 3e
       0.36804488

sequential/dense_2/BiasAdd/ReadVariableOp f4 [2]
000000 85 27 c1 3e 70 71 bf be
       0.37725464 -0.37391233

sequential/dense/BiasAdd/ReadVariableOp f4 [8]
000000 f9 90 78 3e 09 39 dd 3e 80 10 fa 3e c7 08 da 3c
       0.24274053 0.43207577 0.48840714 0.026615513
000010 39 7f 73 be db ae e9 3e 59 60 b4 be a1 04 e5 3e
       -0.23779 0.45641217 -0.35229757 0.44730094

sequential/dense/MatMul f4 [8, 7]
000000 60 60 3f 3e 09 0f 3f bc d2 ea c1 bd e2 b0 8d bc
       0.18689108 -0.0116612995 -0.094686165 -0.017296258
000010 57 a1 00 be d2 11 81 bb 16 23 60 3e 33 e9 a1 be
       -0.12561546 -0.003938892 0.21888384 -0.3162323
000020 cb 4b c9 bc 77 2d db 3d 43 5c 16 3d be 79 35 bd
       -0.024572274 0.10702031 0.03670908 -0.044305556
000030 54 c0 55 be 25 05 1d 3d a1 a7 63 be e3 7d 70 bd
       -0.20874149 0.038334984 -0.22231914 -0.058713805
000040 94 cb 33 3e ef f9 aa 3c 43 06 dd bc 11 34 3e be
       0.17558128 0.02087113 -0.026980525 -0.1857455
000050 4f e9 b9 ba 44 8c f1 3d 6d 26 a0 be 7e 24 c7 3b
       -0.0014183911 0.11794332 -0.31279317 0.0060773483
000060 b3 ec 07 3e 06 3d 3d 3e d1 5e 41 3e a0 08 09 3e
       0.13273887 0.1848031 0.18883826 0.13382196
000070 c5 ae 61 3e 97 f6 b2 3d 91 92 47 3d 2b 3c ab bc
       0.22039326 0.087384395 0.04872376 -0.020902714
000080 50 c4 02 3e bb c5 07 3e 58 fc 85 3d 23 f5 45 be
       0.127702 0.13259022 0.065422714 -0.19331793
000090 03 08 64 bd 85 f9 36 3e a9 04 67 3c 50 43 8e bd
       -0.055671703 0.17868622 0.014100232 -0.069464326
0000a0 3c fa 59 be bb 25 5c bb bb bb 19 3e 0f 0e b7 3d
       -0.21286863 -0.0033591825 0.1501302 0.08938228
0000b0 c0 87 66 3d 02 19 84 3d fc 18 8e 3d b0 8e 4c 3e
       0.056281805 0.06450082 0.06938359 0.19976306
0000c0 d6 2a 93 3d fc ee 3f be f4 32 51 bd 13 08 ea 3d
       0.07185905 -0.18743509 -0.051073983 0.11427321
0000d0 f8 d2 37 3d 7f 3f cc 3d 3b fa 85 be 8d 69 ec bd
       0.04487893 0.099730484 -0.26167473 -0.1154357

sequential/dense_1/MatMul f4 [5, 8]
000000 4f a6 ae 3d 62 88 d8 bb 35 7b 5b bd 5b d1 f4 bd
       0.085278146 -0.006608055 -0.053584296 -0.11953994
000010 8f da 74 bd e2 24 52 bc fe 7f 02 bd 87 84 78 bd
       -0.059778746 -0.012826176 -0.031860344 -0.060673263
000020 58 c7 11 3f f7 11 16 3d 4c d2 52 3e d9 3c a7 be
       0.569448 0.036638226 0.20588034 -0.3266361
000030 48 b6 59 3d c2 9d 52 3e b4 b9 a3 bc 76 d9 fe 3d
       0.053152353 0.20567992 -0.019986011 0.12443821
000040 c3 2b 12 bf 28 3a 1a be bb 0f d7 bd e4 65 52 bd
       -0.57098025 -0.15061247 -0.10501047 -0.0513667
000050 1c f7 17 3e 10 94 8d be ce 88 bf 3d ef 40 84 be
       0.14840358 -0.27652025 0.09352265 -0.2583079
000060 87 f1 86 3c b3 f5 e5 3c b1 37 e7 bc 9f 05 a6 bc
       0.016472591 0.02807126 -0.028224798 -0.020266352
000070 f1 e8 ce bc 95 ac 90 3d 62 0d b8 bc e0 bb 90 bd
       -0.02525756 0.070641674 -0.022467319 -0.07067084
000080 5e 8b fc 3e e5 98 d5 3c 3f b1 09 3e 09 cf 94 be
       0.4932508 0.026073882 0.1344652 -0.29064205
000090 16 ac a8 3c 2f d1 6d 3e c1 07 62 bc a6 75 f3 3d
       0.02058987 0.23224328 -0.013795794 0.11887674

sequential/dense_2/MatMul f4 [2, 5]
000000 98 77 9c be 4a a8 1c 3f 60 97 cf be cc 76 23 be
       -0.30559993 0.6119429 -0.40545177 -0.15963286
000010 5b 6e c5 be 04 c1 a6 3e e7 f3 02 3f 83 75 94 3e
       -0.38560757 0.32569134 0.51153415 0.28995904
000020 86 dc 32 3f 2a 2b 81 bf
       0.6986774 -1.0091298
